cifar_gan_training/tiny_discriminator.pth (torch, 756882 bytes, 9 tensors)

module.main.0.weight f4 [32, 3, 4, 4]
00000000: afaf edbd 5dce 2dbe abde 55be d9c4 f4ba
00000010: 988b d63d d83e 07be 6034 ebbd 0e66 f5bb
00000020: d8a5 333d 74b2 533c 8c33 c53d 043f a1bd
00000030: 9cb8 d63d fc66 0f3e 12df 1a3e e1d2 ff3d
00000040: 9994 57bd fdc7 84be 7290 92be 4137 10bd
00000050: 5ed4 31bd 34ff 05bd 1970 e7bc 5ef7 0fbe
00000060: f18e 693d fcad 343e 2283 0e3e 193f 10be
00000070: c9ac ee3d c698 3c3e dd30 263e 98d6 94bd
00000080: 374c c6bd d59b 07be 7a4e 81bd a05b 1bbe
00000090: 4789 853d e307 003e 4712 31bb d63a cdbd
000000a0: 9a9b db3d d818 0c3e daf7 fa3d 9087 3d3d
000000b0: 77f5 ba3d b409 313e f772 333e 1d1a 63bd
000000c0: 837f 133d 8e6e 483e d675 7e3e f16f ca3d
000000d0: 86f8 c63d 2451 8f3e 8a7d 3a3e b27b 3c3e
000000e0: 425a 173c 55f3 e6bc 3b2d b8bd f8af 12be
000000f0: b572 fa3c 6c29 4fbd 8f4c c73d 15c6 9fbd
00000100: 5a78 5b3c 4444 7e3d 32c5 073e c5f9 ad3d
00000110: 75fe 063d dbdc 0f3e 33a3 033d c657 963a
00000120: 458b 4a3b da6e 36be e34d 39be 1f2e 2abe
00000130: e063 84bd 8002 64be e2a8 53be fb63 0ebe
00000140: 3375 06be 8f9b ba3d c5d6 cc3d ed16 c73d
00000150: 0291 973d 8ec3 96bc 9035 a33d e6b9 be3d
00000160: b880 d7bd c2fc 11be faa2 86bd c88f b9bd
00000170: 0912 a33d 1cdd 12be 843f 24be 9936 8abd
00000180: ad61 3e3c 6f58 9cbd 0ce1 ddbd 954f b43d
00000190: a099 103d 47fc 853c faeb 243e e01d 3dbd
000001a0: 1b50 ad3d 0f58 dbbd 9f0b c03c 9715 df3d
000001b0: fa55 82bd 481a 493c abaf 223d c75f d2bd
000001c0: db54 8fbd 994d cebd 8e7c 8c3c 2a99 ddbc
000001d0: 5919 e2bd cd12 483c 18db d2bd d460 debc
000001e0: 0560 583d cfc9 0a3e 5cff 903d 24d7 67bc
000001f0: 18f9 8c3d 5512 593c 3f3d 763d 32b7 1d3c
00000200: 1848 f53d 7de0 dc3d bbb2 8bb9 be40 c23d
00000210: 0477 7b3d 53e1 3f3e ab2d 593e c9d0 533e
00000220: 1f13 a53d 7c99 8a3c e54e 4d3e 89ba 813d
00000230: 14d5 323e f301 c3b8 2ebe 353e e5e5 073e
00000240: bb4a 3f3d bee1 30bc 2410 16be be32 3dbe
00000250: 4520 15bc 1ad7 f73d a85e cabd d4a0 08be
00000260: aa80 10bd 10fc 43be 4876 923d c596 96bd
00000270: c2b2 69bd a284 36be 40c8 acbc 3e10 82bd
00000280: f745 1bbd 4e89 b2bd 03ca d63d e267 3dbd
00000290: 5e59 623d 9464 953d ac16 c7bc a470 5f3e
000002a0: 643c 973a 5ac0 e93d c986 81bd feb7 2fbe
000002b0: 35fb 5b3d bcc5 45bd bad4 fbbb b519 f03d
000002c0: 40d0 2c3e 761c f1bd 17bf 703e 05e0 c93d
000002d0: 2ea8 9ebd bebc ddbd dd6a d83d 01eb d03c
000002e0: 9c1d 603d 0d84 6c3d f05f 623c 5827 113e
000002f0: 5a7f 11bd 44cf 043e 78d6 debb 0fc5 de39
00000300: b572 323e 128c 143e a843 323e 33c9 93bd
00000310: 9e47 33bc 6f5d 9bbd b037 2cbe 0930 30be
00000320: 8306 333d 8148 ac3d b917 eebc 0e2e 3bbe
00000330: 85e3 0cbc dc08 e73d 46c8 473e f8c4 64bd
00000340: d51a 233d a037 c93d b1e0 153e 1e61 14be
00000350: ebb7 f23c a445 07be a31f dbbd cacc 78be
00000360: 21eb 193c aae0 5ebd c427 01be 2d73 33be
00000370: 9088 6a3d 6a0d fb3d a8b2 043e 535c 093e
00000380: eeae 403e a3e5 22bb cecf 5abd 7204 09be
00000390: 8a9d 6d3b a448 0ebe 542b 9ebd 6ab6 8dbd
000003a0: 128c 1c3d 1122 78bd d601 f2bb 7c69 49bd
000003b0: 0eac 0ebd 16a9 803d 3c5c 473e 544f da3c
000003c0: 3e3d d83c 371a 093e e53b 473d c8a8 e73d
000003d0: 6e97 113e caf8 c3bc 9a4a aabd d9db 7b3e
000003e0: 3542 d93d 3cbe 803d 22d4 9dbe 4ba5 cd3c
000003f0: 5018 3e3e 1c16 313e eaca 0dbe 874b 673d
-0.116057746 -0.16973253 -0.20885722 -0.0018674388 0.10475844 -0.13207567 -0.11484599 -0.0074889725
0.043859333 0.0129209645 0.096289724 -0.078733474 0.1048443 0.14004129 0.15124157 0.12491394
-0.05263195 -0.2593383 -0.28625828 -0.035208944 -0.04341542 -0.032714084 -0.028251695 -0.14059207
0.057021085 0.17644495 0.1391721 -0.1408657 0.1165405 0.18417653 0.16229577 -0.07267493
-0.096825056 -0.13243039 -0.06313796 -0.15171671 0.06520324 0.12503009 -0.002701895 -0.10020988
0.10723038 0.13681352 0.12254305 0.04627186 0.0912885 0.17288858 0.17524324 -0.055444825
0.036010277 0.19573423 0.24849638 0.098846324 0.09715371 0.27991593 0.18211952 0.18406561
0.009237828 -0.028192202 -0.08993002 -0.14324939 0.030572275 -0.050576612 0.09731399 -0.07801453
0.013395393 0.062076822 0.13258818 0.084949054 0.032957513 0.14049093 0.03213806 0.001147025
0.0030905765 -0.17815724 -0.18096118 -0.16619156 -0.06464362 -0.22266579 -0.20669892 -0.13905327
-0.13130645 0.09111702 0.100019015 0.097211696 0.07400705 -0.018403795 0.079692006 0.09312801
-0.10522598 -0.14256576 -0.06574054 -0.09060627 0.07962424 -0.14342159 -0.16039854 -0.06748695
0.011619967 -0.07634055 -0.1083394 0.088042416 0.03530276 0.016355647 0.16105643 -0.04617107
0.084625445 -0.10710155 0.023443041 0.1089279 -0.06364055 0.012274332 0.03971831 -0.10272174
-0.06998607 -0.10073394 0.017149236 -0.027050573 -0.11039991 0.012211514 -0.10295695 -0.02714578
0.052825946 0.13553546 0.07079956 -0.014150415 0.06883448 0.013249 0.060117003 0.009626197
0.119766414 0.10785005 -0.0002664531 0.09485005 0.0613928 0.18738298 0.21208827 0.20685114
0.08060288 0.01691889 0.20049627 0.06334407 0.17464095 -9.298688e-05 0.17748329 0.13271292
0.046702128 -0.010796009 -0.14654595 -0.18476388 -0.009101932 0.12101574 -0.098813355 -0.13342601
-0.035278954 -0.19139123 0.071514666 -0.07352976 -0.057055242 -0.17824033 -0.02109158 -0.06350754
-0.03790852 -0.08717595 0.104877494 -0.04624165 0.05526101 0.072945744 -0.024302803 0.21820313
0.0011538384 0.11413641 -0.06324536 -0.17160031 0.053706367 -0.048284277 -0.007685271 0.11723653
0.16876316 -0.117730066 0.23510395 0.098571815 -0.077469215 -0.10827015 0.105672576 0.025502684
0.054715738 0.05774312 0.013816819 0.14175165 -0.035521843 0.1296969 -0.006800469 0.0004248996
0.1742657 0.14506558 0.17408621 -0.0721611 -0.010942368 -0.075861804 -0.16818118 -0.17205824
0.043707382 0.084122665 -0.029064046 -0.18279287 -0.008599167 0.11280987 0.19509992 -0.055851907
0.03982051 0.09825063 0.14636494 -0.14490172 0.029628715 -0.1321016 -0.106993936 -0.24296871
0.009394438 -0.054413475 -0.12612826 -0.17524405 0.057259142 0.12258418 0.12958777 0.13414125
0.1881673 -0.0024856112 -0.053420834 -0.13380602 0.003625723 -0.13894898 -0.07723108 -0.06919558
0.03821952 -0.060579363 -0.0073854728 -0.049172863 -0.034832053 0.062822506 0.19468778 0.026649155
0.02639639 0.13388906 0.048641104 0.11311489 0.14217922 -0.023922343 -0.0831501 0.24595584
0.10608331 0.06286284 -0.30825907 0.025103232 0.18563962 0.1729359 -0.13846937 0.056468513

module.main.0.bias f4 [32]
00000000: f2f5 e93d 6d90 0abe 2b0d 94bd f3b9 3f3e
00000010: ced8 c2bc 0597 fabd 78e2 203d 7d8e 99b9
00000020: 6ae9 013e 1970 a43d 7238 84be 181e 34bb
00000030: feae 87bc 5fbd dcbd a219 1f3d a77a 82ba
00000040: c09d 423e 697b 89bc 92e1 893d a954 8dbb
00000050: e94d 97ba 52b2 11bc 539e 0c3e 4a95 c33d
00000060: bd9b 09bb f067 7cbe 44d5 763d 00d7 febd
00000070: 54da 82bb 9c9b bbbb a39d caba 24b9 2abb
0.114238635 -0.13531657 -0.07229074 0.18723278 -0.023785021 -0.12235836 0.039278477 -0.00029288596
0.12686697 0.080291934 -0.25824314 -0.0027483758 -0.016562935 -0.10778307 0.038842805 -0.0009954766
0.1900549 -0.01678248 0.06732477 -0.004313071 -0.0011543605 -0.0088926125 0.13732271 0.09549959
-0.0020997368 -0.24649024 0.06026198 -0.12443352 -0.003993312 -0.005725337 -0.0015458356 -0.0026050294

module.main.2.weight f4 [64, 32, 4, 4]
00000000: 2b0c a1bd 4536 9ebd ca29 133c cd6b c63b
00000010: 8e11 9cbd 7300 abbd 8406 8d3c 0992 b2bc
00000020: e2c2 36bd 1de4 29bd a33e 873d 3e0a c33c
00000030: 1c79 f6bd 3216 bbbd 1037 9abb 53a5 b0bc
00000040: 1947 3dbd f31e e4bd d0b8 e0bc 98aa adbc
00000050: f4d8 77bd 4cd6 48bd ef6b 34bd ccbb fabc
00000060: 7874 29bd 6504 4abc 2fea a7bc 084f a2bd
00000070: 1e45 bcbd ec99 c4bd fa07 aebc 779e 09bd
00000080: e596 3f3c c6b4 26bd 1c1b 82bc 1bdf 97bc
00000090: c36c 873c 9eba ce3a a9c4 b93d 949e 3f3d
000000a0: c4de 3ebc 2ea2 833d 0933 913d 4fee a53c
000000b0: c561 5dbd be0f 2ebc ae05 be3c 56fe a1bd
000000c0: bb6c 0dbd df4b abbd f0c0 a53b 757f 92bc
000000d0: 615c 1fbd 9c28 99bc a276 9b3c 2963 073d
000000e0: 6a40 85bd db15 c0bd 9ad5 acba 5637 fbbb
000000f0: 3381 debb adcf 22bd 9163 863c 576c 0f3d
00000100: d3cc 2b3d 6541 69bc 415c 09bb 562c 1ebc
00000110: ed57 c03c 4341 3fbc 14a2 83bc 799c af3c
00000120: 62ea 593c 63da b4bd c2b5 0fbd 1ca1 2ebc
00000130: 8bcf 4cbc 1769 6cbd 5913 b23c 451d d23c
00000140: b29a 863d 272e 1cbd d298 c93d 2331 6abd
00000150: 3fca 5e3d 2bd0 373c 1caf 033e 4caf 91ba
00000160: c11a 4d3d e5aa 273d b75b e53d 2150 803c
00000170: a21c 283c 5f65 4e3d c480 823c 8073 a43d
00000180: c7ef 15bd 503f 863d 28a0 903d e0ce 523c
00000190: 8dad b53d bbb0 b1bd 3ea9 513d cf31 dc3d
000001a0: 332d 48bd da91 8fbc 4b73 9f3d 32c5 a63d
000001b0: 49a4 ebbc 313e 88ba ead4 8a3d 9bb4 74bc
000001c0: 0e95 803c 27bf 84bd cabc 9c3d 291d 84bd
000001d0: 00e4 5f3c fe24 57bd 73ac e03d 4ec3 7cbb
000001e0: 01b0 ac3a 1be0 953d 085a cb3d ff40 d8bc
000001f0: 164e 62bc b1a8 4f3d 4ee1 2d3d 23aa 683d
00000200: 5ca5 943c 442e 363c a16b 4cbd 0aff ed3b
00000210: 10e9 a5bc 8e84 febc 48cd bd3c 498e 443d
00000220: 2b33 ea3c aed8 4c3c ffe5 b83c 9da0 723d
00000230: 6df8 79bd 32fe bebc 2bc7 323b 8a51 8abc
00000240: 9cca 983b 0fde c13c fc45 54bd 3e2a 1bbd
00000250: 7686 a83c a019 e1bc 3483 883c d36e 90bc
00000260: 1ce0 c53c dba4 b0bd 875e eebc a922 d3bc
00000270: 9fd2 0ebd 0240 4dbd fdaf 843c 4c42 143d
00000280: 612f cb3c 6076 d83d 8e5c f7bc 8d52 a93a
00000290: d43f a03d 0ed2 e33c 5928 d2bc 01b0 b13c
000002a0: 6cf3 203d 03ca 963c c28b 9dbd a3ee 95bc
000002b0: 1e49 683d bd55 083c fd5a 15bc b93c 65bd
000002c0: 729a 7abe 6284 81be 74b0 ae3c 6bc3 34be
000002d0: d24b 3bbe c0ad 8bbe 90c9 9e3b c22a 25be
000002e0: 995b 90be 10f3 48be f9df 96bd 45e4 80be
000002f0: f40e 94be e3b6 43bd 46ed e6bd 042c 31bd
00000300: ef5b 7bbc db07 4d3a d47a 43bc ead1 47bd
00000310: 37a7 5639 5a99 8d3c 72ae cd3c 8fda 0abd
00000320: b470 d63d 6f47 353d ee4e 82bd c3a6 f0bc
00000330: 65fd c73d 814a 2fbb a114 88bd 121f 60bd
00000340: d039 9e3c c1b9 c9bd 5a0e 22bc 97ad 56bc
00000350: 51af 9dbc 581c 333c 9b3c ca3d 9c9d 9e3c
00000360: b724 143d 965b 143d 2236 8a3d eb6f 243c
00000370: af10 a8bb f89f 22bc 4a5b a43b 8d55 a13c
00000380: 078e 033d 2ffc 023c 654b e73d 1b38 de3d
00000390: cbd0 a33a 4d46 1bbd 88a3 de3d d577 e13d
000003a0: bad5 8c3d d3b4 ae3d 17bc 173e c151 bc3d
000003b0: b5aa 9b3b 34a9 223d 9b4e ff3d 5607 593d
000003c0: 1b92 a9bd ec24 17bd d22c 92bd 37c8 8d3c
000003d0: 0802 fbbd a929 cabd 4dd0 d5bd 752c c4bd
000003e0: 9199 58be 2a9b 0dbe b3cf b5bd ed24 ecbd
000003f0: 1927 0cbb a444 fcbd 4ec3 febc 883b c0bc
-0.07863649 -0.07725195 0.008982131 0.0060553313 -0.07620536 -0.08349695 0.017215021 -0.02179815
-0.04461945 -0.04147731 0.06603744 0.023808595 -0.120348185 -0.09135093 -0.004706271 -0.021563208
-0.046210382 -0.111387156 -0.027431875 -0.02119951 -0.060509637 -0.049032494 -0.044048246 -0.030607127
-0.04137084 -0.012330149 -0.02049741 -0.0792523 -0.091928706 -0.09599671 -0.021244038 -0.03359839
0.011693691 -0.040699743 -0.015882067 -0.018539002 0.016531354 0.0015772169 0.09070713 0.04678209
-0.011649791 0.06427418 0.07089812 0.020255236 -0.05404832 -0.01062387 0.023196068 -0.07909839
-0.03452752 -0.08364081 0.0050584003 -0.017883042 -0.03890646 -0.018696122 0.018977467 0.03305355
-0.06506427 -0.093791686 -0.0013186217 -0.0076665087 -0.006790304 -0.039748836 0.016404899 0.03501543
0.041943382 -0.014236783 -0.0020959529 -0.009654125 0.023479426 -0.011673274 -0.016068496 0.021436917
0.01330051 -0.088307165 -0.035085447 -0.010658529 -0.012500654 -0.05771741 0.021737741 0.025648722
0.065724745 -0.03812995 0.09843601 -0.057175767 0.054392096 0.011219065 0.12859768 -0.0011114865
0.050074343 0.040934462 0.11199134 0.015663208 0.010260733 0.050389644 0.01593054 0.080298424
-0.036605623 0.06555045 0.070617974 0.012866706 0.08870993 -0.08676287 0.051186793 0.10751688
-0.04887123 -0.017525602 0.07785662 0.08143081 -0.02876486 -0.0010394511 0.067788914 -0.014935638
0.015696075 -0.06481772 0.07653196 -0.06450874 0.013665199 -0.052525513 0.10970392 -0.003856856
0.0013175012 0.07318135 0.099292815 -0.02639818 -0.013812562 0.050697986 0.042451195 0.05680288
0.018145256 0.011119429 -0.04990733 0.007263069 -0.020252734 -0.031069066 0.023169175 0.047987256
0.028588852 0.012502832 0.022570608 0.059235204 -0.061027933 -0.02331457 0.0027279358 -0.016884584
0.004662825 0.023665456 -0.051824555 -0.037882082 0.020571928 -0.02747804 0.016664125 -0.01763097
0.024154715 -0.08625194 -0.029097809 -0.025773363 -0.034868833 -0.05010987 0.016197199 0.036196038
0.024802865 0.10569453 -0.0301955 0.0012918279 0.07824674 0.027810123 -0.025654005 0.02169037
0.039294645 0.018406874 -0.07692672 -0.018302267 0.056710355 0.008321223 -0.009115932 -0.055966113
-0.24472979 -0.25296313 0.021324374 -0.17652671 -0.18290642 -0.27280998 0.0048458055 -0.16129592
-0.28194883 -0.19623971 -0.07366938 -0.25174156 -0.28917658 -0.047781836 -0.11275725 -0.043254867
-0.015341743 0.00078213 -0.01193114 -0.048784174 0.00020470923 0.017285038 0.025107596 -0.03389984
0.10470715 0.044257578 -0.06362711 -0.029376393 0.09765128 -0.0026747289 -0.0664456 -0.05471713
0.019314677 -0.09849883 -0.009891117 -0.0131029105 -0.019248636 0.010932051 0.09874841 0.019362263
0.036167827 0.036220156 0.06748606 0.010036449 -0.005128942 -0.009925835 0.0050157653 0.019694114
0.03211787 0.007994696 0.11293677 0.10850545 0.0012498138 -0.03790884 0.10871035 0.11009184
0.068767026 0.08530583 0.14817844 0.09195281 0.0047505745 0.039712146 0.12466165 0.05298551
-0.082798205 -0.036900446 -0.07137455 0.017307384 -0.12256247 -0.09871227 -0.10440121 -0.09578792
-0.21152331 -0.13828722 -0.08877506 -0.115304805 -0.0021385609 -0.1231778 -0.031098988 -0.023465887

module.main.2.bias f4 [64]
00000000: f980 8bbd 2b6e 32bd dfc8 58bb 70bf 7fbd
00000010: 8ce6 493d a29f 9abd 135d 943d 9b02 1fbd
00000020: 5be3 5e3c 29e9 213d 6d47 523d 831a 243d
00000030: 8467 acbd a128 563d 72ca 013d e0b8 623d
00000040: ba18 193d 98aa e43d d50f 733d 0f99 293d
00000050: 7350 1cbc b326 e23c f794 2bbd 7ecf b0bc
00000060: 0e3a a7bc 0e53 86bd 88ec c33c 6c8f d7bb
00000070: dd9c 48bc b981 2d3e 8d7e 3dbd 74c7 6dbd
00000080: cfb0 e1bb 04db aebc ff7c 683d 6e0c 23bd
00000090: 781f 76bd cec8 e7bc 93fd bb3d 3280 f23d
000000a0: 0919 89bd 57fa 9a3d b679 2c3b d644 f83b
000000b0: 6120 7cbd 9289 9ebd 8bf5 d2bc d327 083d
000000c0: b8fd 3439 89d7 10bd 59de 41bd 0e16 0c3d
000000d0: 6892 bd3c ad90 173d 773a 2e3b ddb7 50bd
000000e0: 4d7f 2dbd 881a 32bd d65b ee3d e1f8 953c
000000f0: 1c6e ffbc 5523 b6bd fe0a d5bc 9cac f9bc
-0.06811709 -0.043562096 -0.0033078713 -0.06243843 0.049292132 -0.07549979 0.07244315 -0.038820844
0.01360401 0.039529 0.05133765 0.040064346 -0.084181815 0.05228484 0.031687208 0.05535209
0.037377097 0.11165351 0.05934127 0.041405734 -0.009540665 0.027606344 -0.04189011 -0.021583315
-0.020413425 -0.0655881 0.023916498 -0.0065783765 -0.01224443 0.16944017 -0.046263266 -0.05805154
-0.0068875323 -0.02134467 0.05675983 -0.039806776 -0.060088605 -0.028293993 0.09179225 0.118408576
-0.06694228 0.0756728 0.0026317663 0.0075765653 -0.061554316 -0.07741083 -0.02575185 0.033241104
0.00017260655 -0.0353618 -0.047331188 0.03420072 0.023141101 0.037003208 0.002658514 -0.050956596
-0.04235773 -0.043482333 0.1163861 0.018307151 -0.031180434 -0.08893458 -0.026006218 -0.030477814

module.main.4.weight f4 [128, 64, 4, 4]
00000000: 6a70 573c 8575 2e3c 69ec 93bd 774f 893b
00000010: 4a8a 3dbd 630e 80bd 5951 28bc 2cd0 98bd
00000020: 3c75 90bd d62f bfbc 99c4 f2bd 553d 8cbd
00000030: 4f3e 38bc 53ba 7d3c 1ca4 b1bd 845c 3a3c
00000040: 5a04 273d 42ac 1b3c 342c 1fbd faf5 36bc
00000050: d066 eb3c 4abc 00bc 71a4 77bc 7e0f c7bc
00000060: 87b2 213d 0dc8 363d 38b6 2e3d bf04 de3c
00000070: dfcf 373d 174d b43b e4aa 3fbd ea38 65bc
00000080: 2b54 0fbd e524 7bbd 823f 91bd ea9b 28bd
00000090: 2484 8bbd e4d1 dabd 48c4 05be 9c9c 5ebd
000000a0: 18ce a2bc 40b7 5e3c 0292 d5bc 5696 5fbd
000000b0: 039d 3ebc 45b9 1f3c f43d fe3c 4b18 ad3c
000000c0: 27a0 c93d 193d e1bd 85d8 60bd f931 ffbd
000000d0: 7dc3 05bd 745c 8fbd 0b23 f9bc 06d4 efbd
000000e0: 2d43 15bd 5bdb cdbd 3bcb a5bd 0a27 94bb
000000f0: 42cb 56bd 54fb 13bd 83ea 7ebd 4f34 b83c
00000100: d17a 82bb 6199 e63c 48a9 c63c 8854 7dbc
00000110: dee7 13bd 3685 aebd 35d3 1f3d 59ab 35bd
00000120: 944b 05be 80eb 3ebd 09d8 6abd 905f 663d
00000130: 2b9e 05bd 0e2e debb d936 bf3d b6ec 9f3c
00000140: eb36 9bbd e8f0 c3bd 2842 df3c 494c be3b
00000150: 6ab5 fdbc 3b62 14be 7d9c 263a d35c 543d
00000160: 5ed4 953d d042 64b8 bf6b 2c3d f033 43bc
00000170: d344 a63d 94ad 60b9 2482 7abd ed83 35bd
00000180: 3de1 9dbd b384 d8bc f405 92bd b881 6fbd
00000190: 845c 1abe 809e d5bd bb2e cabd b0dd d6bd
000001a0: fbf2 79bd 9d1a 92bd af10 d5bd c371 ddbd
000001b0: 8338 01bd d84f 35bd af21 b23c bdbc c53d
000001c0: f273 55bd f8e1 ffbc 3b00 53bd a7c2 0bbd
000001d0: 21b5 c2bd 0c15 663c ab17 b33c bf35 c4bb
000001e0: 2e01 51bc bc58 e7bc f3f3 ef3d 529d 153d
000001f0: 614c a8bd f7d4 013d bba9 823d 25bf a63d
00000200: b2a8 c6bd a7b8 10be c9c9 c9bd b367 32bd
00000210: aa02 95bd c2c6 8bbd 48b8 08bd 929c 7dbc
00000220: bb0b 2cbd dfa7 9cbd 7b0e c63b b6ec 423d
00000230: d11f 86bd db2f 13bd dafb 613d e418 253d
00000240: cbb2 503c e1f9 783d c6cb 053d 2016 ab3d
00000250: 2573 c0bc 6530 913d dc06 e63d 9666 5c3c
00000260: 6e35 263d 1fa8 4e3c 959d 2f3d bfa0 563c
00000270: 0de2 ec3d 5a00 893c 50f9 d23c 965c d63d
00000280: 493f 623c c4ff 9d3b 9285 8abd 57a6 dd3b
00000290: 5967 01bd bc65 a23b 9226 54bc 4772 85bd
000002a0: e122 de3a 74ff 5e3d 40ef 393d de48 e43b
000002b0: 9ef3 c9bc fac7 503d 0d53 383d 229e 85bc
000002c0: c337 923c d2ef 46bc d837 64bc 6511 f43c
000002d0: 5234 873d 2172 963d 36cd 363d 05ca 543c
000002e0: 37b7 b3ba d8a0 433d eaa4 473d 259c 303d
000002f0: a831 b73d d4ad 413d b8f0 72ba 301d 223d
00000300: b3df 41bd 20bc adbd 9962 22bd ba20 9dbd
00000310: 5c19 3abd d993 6bbd 5190 523d 7ba2 48bd
00000320: 291f 3dbc d319 043d 70ce 903c 48b6 6ebc
00000330: 7abe e93b 4c2f b0bc 7dc0 d9bc 6805 babb
00000340: 54c4 b53c 2843 20bd 0a9f 0b3c 6b61 e3bc
00000350: 19c6 29bd 16e6 93bd a055 a8bd 118c 63bd
00000360: ad2c f0bb 7ac9 fbba 281f 0a3c 0cb5 b4bd
00000370: 3b98 45bd 329d a63b 0930 193c 7452 46bd
00000380: 00ac 22bd 6b9c 8cbc a0df 513c 55fa acbd
00000390: 8fa6 89bd f194 4cbd f88a fabc ea35 8dbd
000003a0: 033c b5bd ad91 1bbd 1234 0dbd 092c 7dbd
000003b0: 6b58 66bd ec75 bebb 6aa8 dc3c 1547 73bd
000003c0: 540c adbd 1e82 163b 70aa c73c b6e8 8bbb
000003d0: ed0f c83c e5fd a23d d8da 5a3d 1609 713c
000003e0: 3de3 61bc 247c 693d b222 af3c 69fc 8b3c
000003f0: 774f 2bbd c19b 633c 1e20 263d 87ac 823c
0.01314936 0.010648136 -0.07222826 0.004190381 -0.04627446 -0.06252744 -0.010273301 -0.07461581
-0.07053611 -0.02333824 -0.11853904 -0.06847636 -0.011245324 0.015486318 -0.086738795 0.0113745965
0.040775634 0.009501519 -0.038860515 -0.011167044 0.028735548 -0.007857392 -0.0151148895 -0.02429938
0.039476898 0.044624377 0.042654246 0.027101872 0.044875976 0.005502354 -0.046793833 -0.01399062
-0.03499238 -0.061314482 -0.07092191 -0.041164316 -0.06812313 -0.10684565 -0.13063157 -0.054348573
-0.019873664 0.013593495 -0.026070599 -0.05458673 -0.011634114 0.009748762 0.0310354 0.021129748
0.09845 -0.109979816 -0.05489399 -0.124607034 -0.032657135 -0.07000056 -0.030412218 -0.11710362
-0.036441017 -0.10051604 -0.08095404 -0.0045212554 -0.052439936 -0.036128357 -0.062235367 0.02248588
-0.003981926 0.028149309 0.024250641 -0.015462048 -0.036109798 -0.08521502 0.039019782 -0.044352863
-0.13017112 -0.04661131 -0.057334933 0.05624348 -0.032621544 -0.0067803925 0.09336633 0.019522052
-0.07578834 -0.095674336 0.027253225 0.0058074337 -0.030970294 -0.14490597 0.0006355716 0.051846337
0.073158965 -5.442166e-05 0.042094942 -0.011914238 0.08118596 -0.00021426968 -0.061159268 -0.044315267
-0.077089764 -0.026430463 -0.07130042 -0.05847332 -0.15074354 -0.10430622 -0.098721944 -0.10491502
-0.06102274 -0.07133982 -0.10403573 -0.10812714 -0.031548034 -0.044265598 0.021744577 0.096551396
-0.052112527 -0.03123568 -0.05151389 -0.03412118 -0.09507204 0.014043104 0.021861872 -0.0059878523
-0.012756629 -0.028240554 0.117164515 0.036526985 -0.08217693 0.03169724 0.0638003 0.08141927
-0.09700145 -0.1413294 -0.098529406 -0.043555927 -0.07275899 -0.068250194 -0.03337887 -0.015479224
-0.042003375 -0.07649206 0.0060442067 0.047589026 -0.06549037 -0.03593431 0.055171825 0.04030694
0.01273794 0.060785178 0.032665037 0.083538294 -0.023492405 0.07089309 0.11231777 0.013452193
0.0405783 0.012613325 0.04287489 0.013099848 0.11566553 0.0167238 0.025753647 0.10466878
0.013809034 0.0048217494 -0.06763758 0.006764214 -0.0315927 0.0049559753 -0.012948649 -0.06515937
0.0016947651 0.054442838 0.045394182 0.0069666943 -0.024652299 0.050971963 0.04500108 -0.016310755
0.017848855 -0.012142139 -0.01392933 0.02979345 0.06601776 0.07345987 0.0446293 0.012987618
-0.0013711218 0.047760814 0.04874126 0.04311766 0.08945018 0.047284916 -0.0009267437 0.039578617
-0.047332477 -0.084831476 -0.03964481 -0.07672258 -0.04543434 -0.057514045 0.051407162 -0.04898308
-0.011543074 0.03225119 0.017676562 -0.014569826 0.0071333023 -0.021506928 -0.026581043 -0.005676914
0.022188343 -0.039126545 0.008521805 -0.027756413 -0.041448686 -0.0722162 -0.08219457 -0.0555535
-0.0073295445 -0.0019209825 0.00843028 -0.088235945 -0.04824088 0.005084657 0.009349831 -0.048418477
-0.039714813 -0.01716443 0.012809664 -0.084461845 -0.06721222 -0.04994673 -0.030583844 -0.06895049
-0.08849337 -0.037980724 -0.034473486 -0.061809573 -0.056236666 -0.005812397 0.026935775 -0.05939396
-0.08449617 0.002296574 0.024373263 -0.0042696847 0.024421657 0.07958583 0.053431362 0.014711639
-0.013787088 0.057003155 0.021378849 0.017088132 -0.04182383 0.013892115 0.040557973 0.015951408

module.main.4.bias f4 [128]
00000000: 6653 54bd dd27 7dbc a3c0 523d 43ca a83b
00000010: 9c5b 2bbd 3848 0d3e 4359 adbd 0563 963d
00000020: 4824 d83b 176f b1bc b837 253d 5603 58bd
00000030: 8f8f 483c ad98 213d 8467 7ebb cded aa3c
00000040: 34cc 7a3d f990 74bd b569 823b a35c 7e3d
00000050: 02cd a83b 6e3a dbbc 9a8d ecbc 866f 743d
00000060: 9e59 e0bc f8f9 ab3d f09e 9a3d e732 e73c
00000070: 8ebf 063b 31f4 c23b ece1 f0bc 8174 8dbb
00000080: 8cbf 3e3d 8490 973d 7ba5 973d 89c8 40bd
00000090: 84ed c03c d210 403d 4433 263c bdbc 7abc
000000a0: b9e8 023d ade2 963c aa06 a3bd 0872 e03d
000000b0: 7e6e 303d 28a2 9bbc 31b7 6b3d 7263 b4bb
000000c0: 3055 083c abc6 24bd ee97 4a3d 6a95 a33c
000000d0: 8bc2 0e3c f71b a13d ef66 51bc 269f 173c
000000e0: 4ce0 043d ae51 4a3d 3b39 a73d 8d0c 5c3d
000000f0: e541 ff3c 8afc 59bc 5e72 6c3d 6797 fc3c
00000100: 7dda 783d 2f23 2d3d 1a3a 233d 895c 8f3d
00000110: 9073 933c bc00 a53c 7976 b93b 711d 9a3c
00000120: 6f46 f23d 69c3 93bd 4dcc b8bc e9b1 193d
00000130: b71e b13d ffc2 e6bb 5c4d 393c 56d9 b73c
00000140: 5a2f f03c 312c 413b 5fdb 143d 1fc7 e73c
00000150: 88b0 ad3c d0d5 993c 2dad 513d 3133 783d
00000160: 56d3 c8bb 1f7f dcbc 9b32 86bc 748f f43c
00000170: 59f5 2f3d e500 bd3c 589e 143d 9a02 8d3c
00000180: 4a2c 823c 45b6 883c 0455 8b3d 2600 823d
00000190: ae31 833c 423d 083e 448d eebc 3f28 533b
000001a0: cc5e ac3d 2b76 823d dbf5 c8bc b644 abbc
000001b0: 1c49 613b 1602 89bc 9244 49bb 8d41 143e
000001c0: 0165 323d f66f d739 a6be a5bc 4d1d c03d
000001d0: e84e b33d 417d bdbc 755f 40ba 16ef ac3c
000001e0: decd 493c e5cb 22bd b7c1 c0bb 1457 c43d
000001f0: e3d5 1f3c 6cc5 c2bc 4a76 ed3c 2f3d 653d
-0.051837347 -0.015451399 0.051453244 0.0051510646 -0.041835412 0.1379708 -0.08464291 0.07343105
0.006596122 -0.021659417 0.04033634 -0.052737556 0.012241258 0.039452244 -0.0038819024 0.020865345
0.0612299 -0.05970857 0.0039798864 0.062100064 0.005151392 -0.02676126 -0.028876115 0.05967667
-0.027386483 0.08397287 0.07549846 0.028222514 0.0020560953 0.00594952 -0.029404603 -0.004316867
0.046569392 0.07400611 0.0740461 -0.047066245 0.023550756 0.04689104 0.010144059 -0.015303788
0.031960223 0.018418634 -0.079602554 0.1095925 0.043074124 -0.01899822 0.05754775 -0.005505019
0.0083210915 -0.040228527 0.049461298 0.019968707 0.008713375 0.07866662 -0.012780889 0.009254253
0.03244047 0.049394302 0.08165213 0.053722907 0.03115935 -0.013304839 0.057726257 0.030833913
0.06075524 0.04226988 0.03985033 0.070000716 0.01799944 0.020141952 0.005659875 0.018812867
0.118298404 -0.07215006 -0.022558356 0.037523184 0.086484365 -0.0070422883 0.011309948 0.022442501
0.029319454 0.0029475803 0.03634202 0.02829319 0.02120234 0.018778712 0.051190544 0.060595695
-0.006128709 -0.026916085 -0.016381552 0.02985356 0.04295859 0.023071716 0.03628382 0.017213155
0.01589026 0.016688475 0.06803325 0.063476846 0.0160149 0.13304618 -0.029120095 0.0032220033
0.084165186 0.06370195 -0.024531296 -0.020906787 0.0034375852 -0.016724627 -0.0030711037 0.1447813
0.043553356 0.00041091413 -0.02023251 0.09380589 0.087552845 -0.023131015 -0.0007338443 0.021110099
0.012317149 -0.03974523 -0.0058824676 0.09586921 0.009755584 -0.023775779 0.028987069 0.055966552

module.adv_layer.0.weight f4 [1, 128, 4, 4]
00000000: ccdc 6e3c 7d7b 133d 3202 a4bb 1e74 cebc
00000010: 1ba1 bc3d 6bd5 14bd 85ca c5bb c142 f1bc
00000020: 0c7e 52bc 96c5 1c3d e2f9 053d 2303 97bd
00000030: 9dcf c9bc dc93 0e3d 770a a1bc d4bf 24bd
00000040: 13a2 42bd c76d f23d b358 54bc 226a f0bc
00000050: d3c1 9a3d 35e3 573d 48d8 2c3d d399 053d
00000060: 2b4a 7d3d 2088 a23d 74e1 c73c f63c 273d
00000070: b8ad 163d 587c a03c 11d9 8db9 9639 1a3d
00000080: 0ebd e1bd 2fee 61bd 23d2 9ebd 3c53 b2bc
00000090: eed5 93bc fb72 ffbc 8126 7ebd 74e0 b43c
000000a0: 4d0e 36bd 0ee1 973c 39e7 04bd ce33 d43a
000000b0: 7cde 16be 6a03 babc cc45 a3bd f0c6 ccbd
000000c0: 9d81 6d3e 6e7f d0bc 4a1e 54bc ef52 e33b
000000d0: 426f 603e 050e b1bc 09d6 33bc 8fc1 af3b
000000e0: 73f7 683e 1b4a 77bc 90f5 91bc 1383 693c
000000f0: 74a2 623e f522 69bd 16a5 93bc b481 acbc
00000100: d7f3 1b3d 9fd2 923c 3b62 c1bc 7b5f 99bd
00000110: 3b5e 7d3a 6e28 bcbd 2fa6 78bd 921d d23d
00000120: 13e5 80bd 5c60 c73d b3ec 853d 99a1 4e3d
00000130: cb42 2ebd 7b8b a43d 4a12 953c 6067 0f3e
00000140: 7715 433d 2f08 83bd a847 9fbd 5fcf 45bd
00000150: 87c0 bd3c 8a9c 36bd e363 dcbd af3e 80bd
00000160: 7d27 b3bc 47e5 61bd 3ffc 8bbd fe88 59bb
00000170: b423 b73d e0c8 bd3c 570e 0f3d 92ee b53c
00000180: ce41 973c 5585 3ebd dc94 c2bc 5765 83bd
00000190: d168 e23c b5c5 5ebd f75e afbd 485c c8bd
000001a0: 21f9 893d 126d 72bd 3504 56bd e359 3ebd
000001b0: 767b 863c c2c2 94bd 9e65 93bd 727e a23c
000001c0: 9c8a a63d 8714 d8bc 1054 2d3d 179d a4bc
000001d0: 58bd e63c 6ffd 56bd cdd1 3abd 2efd b53c
000001e0: c65c 143d 065a 0fbd 7df7 b0bd 5ff0 a2bc
000001f0: d1ec 553d 6720 02bc 7e6b 9e3c c182 e93d
00000200: 6e43 0e3d 9ee8 d7bc a0c8 3cbd 6ae5 9cbd
00000210: 6eed 03bc 81c1 72bc dc1a d6bc 5628 f53c
00000220: 56ee e6bc 12c9 16bd 84fa 2dbd 9820 123d
00000230: afd8 d73c 81e0 643d 1d42 ebbb 6841 833d
00000240: 4ccc 7e3e f6c8 333d a3c7 f73d 0e2a b23d
00000250: 233e 613e 5f8c bc3d 0da3 083e b29c 013e
00000260: 0632 c53d e057 983d 8a58 b23d c64c f33d
00000270: 9e1c 493e 233b 443e 36b3 123e 5688 0d3e
00000280: 8e8c 05be af8c 0dbc 2802 5f3d 56af 8bbd
00000290: 262a 8bbd 70d2 5d3d 0d86 89bc 0698 3ebd
000002a0: 0657 d0bd 7fc5 223c f6fc 1fbc 1f41 9a3d
000002b0: 807d c43c e74a 4c3e 7a8a ec3d 82ce 023d
000002c0: 514b d93d e080 073e de48 ac3d b98a 443e
000002d0: 6017 693c 703d edbd 2961 c6bb b4fe 983d
000002e0: d2d0 f8bb 49bd 283c b7fd 02be 7313 073e
000002f0: e3b6 303d 5012 993c ed8a 613c 5fb2 383e
00000300: b456 593d 9d21 d83b 144e c83c f099 573d
00000310: 19a4 d03d 455f 263e ebf9 073e 08a5 d53c
00000320: edef ed3d e723 b43d ba2e e03d d28c 9f3d
00000330: a02c a53d d506 d73d cd78 d93d d274 3a3e
00000340: 7fc1 c63c 6de9 ed3c a40f be3c 1e39 b93c
00000350: 4d9d 923c a59d 2cbd 259f 93bd d633 24bd
00000360: 2fa5 7e3d 75f1 c23c 2731 bc3c 474f 0d3c
00000370: 5fae 0b3d 1b01 35bd 1b78 81bd e9b1 41bd
00000380: 6c21 a63d efb5 dbbc 6a7d 7f3d 14ae f23c
00000390: 8861 f63c dd1b 0cbd 5a3f 43bb 71ce d7bc
000003a0: ac93 a83c 7252 053d 6b1f 9f3c a595 1bbd
000003b0: 51f0 02bd b334 5bbc 46fa 6abd da95 febd
000003c0: 0aa0 7dbb d3de f63d 4ab5 353d f5f3 2fbe
000003d0: 8e7e 1cbd 3cfe 483d 4766 173d 88d6 12be
000003e0: 4204 f3bc 822d ac3c 797f 393d ae22 dfbd
000003f0: 4a19 40bd 6f85 bfbd fc9a 6abd 7ed5 1e3d
0.014579009 0.03600644 -0.0050051445 -0.025201853 0.09210416 -0.036336344 -0.006036105 -0.029450776
-0.012847435 0.03827437 0.03270901 -0.07373645 -0.02463513 0.03480898 -0.01965831 -0.040222004
-0.047517847 0.118373446 -0.012960601 -0.029347483 0.075565 0.052706916 0.04219845 0.0326174
0.06183831 0.0793612 0.024399497 0.04082962 0.036786765 0.019590542 -0.00027055343 0.037652574
-0.110223874 -0.05515879 -0.07754924 -0.021768205 -0.018046346 -0.031182757 -0.06204844 0.022079684
-0.044447232 0.018539932 -0.032447074 0.0016189755 -0.14733309 -0.022706706 -0.07972297 -0.09998882
0.23193975 -0.025451388 -0.012946675 0.0069373767 0.21917441 -0.02161313 -0.010976323 0.00536365
0.22750644 -0.015093352 -0.017817289 0.014252442 0.22132283 -0.056918103 -0.018023055 -0.021057941
0.03807434 0.017922698 -0.02360641 -0.074889146 0.00096652255 -0.09187399 -0.06070536 0.10259546
-0.062936924 0.09735176 0.065392874 0.05044708 -0.042544167 0.08034416 0.018197197 0.14004278
0.047627892 -0.06398045 -0.07777339 -0.048293468 0.023163093 -0.04458288 -0.107612394 -0.06261956
-0.021869415 -0.055150297 -0.068352215 -0.0033193226 0.08942357 0.023167074 0.034925785 0.022208486
0.018463995 -0.046513874 -0.023752622 -0.064158134 0.027637871 -0.054387767 -0.08563035 -0.09783226
0.06736971 -0.05918605 -0.052250106 -0.04647244 0.016416293 -0.072637096 -0.07197116 0.019835684
0.081319064 -0.026376976 0.042316496 -0.020094438 0.028166458 -0.052487787 -0.045610238 0.022215452
0.03622129 -0.034997962 -0.08640955 -0.019890008 0.0522278 -0.007942296 0.019338366 0.114018925
0.034732275 -0.026356038 -0.04608977 -0.07660945 -0.008052213 -0.014816643 -0.026135854 0.02992646
-0.02818982 -0.03681285 -0.04247524 0.035675615 0.02634844 0.055878166 -0.007179512 0.064089596
0.2488262 0.043892823 0.120986246 0.086994275 0.2199636 0.09206461 0.13343449 0.12657431
0.09628682 0.07438636 0.08708294 0.11879878 0.19639823 0.19163184 0.14326176 0.1382154
-0.13041899 -0.008639499 0.054445416 -0.06820552 -0.067951486 0.054155767 -0.016787553 -0.0465317
-0.101728484 0.009934782 -0.0097649 0.07531952 0.023985624 0.19950448 0.1154985 0.031935222
0.106100686 0.13232756 0.08412336 0.19193543 0.014226764 -0.11583984 -0.006054063 0.07470456
-0.0075932527 0.010299035 -0.12792097 0.13191013 0.043143164 0.01868549 0.013766033 0.18036793
0.053061202 0.006595804 0.024451293 0.05263704 0.10187549 0.1624728 0.1327893 0.02607967
0.11618028 0.0879591 0.109464124 0.07790531 0.08065152 0.1049935 0.10618744 0.18208626
0.024262188 0.02904197 0.023200817 0.022610243 0.017897272 -0.04214253 -0.07208089 -0.040088497
0.06216925 0.023796776 0.022972656 0.008624858 0.03410184 -0.044190507 -0.063217364 -0.04728881
0.081118435 -0.026820151 0.062375464 0.029624023 0.030075803 -0.03420626 -0.00297924 -0.026343556
0.020578228 0.03254933 0.019424161 -0.03798451 -0.031967465 -0.013379264 -0.057367586 -0.12430926
-0.0038700127 0.12054219 0.044362344 -0.17182906 -0.03820663 0.04907058 0.036962774 -0.1433965
-0.029665116 0.021017794 0.045287583 -0.108952865 -0.046899118 -0.09351622 -0.05727671 0.03877782

module.aux_layer.0.weight f4 [10, 128, 4, 4]
00000000: 26d6 9cbc cb7d f2bc cd2c 983d e764 913d
00000010: 9b3b 70bd 01db 313a 4ac0 ec3b 4d2a 9b3d
00000020: e270 69bc 2371 433d 9cc4 a33d 9e8e 95bc
00000030: ae32 ca3c 11c7 2ebd 7559 16bd 7fd8 e4bc
00000040: 6a91 903c ddf6 75bb 5535 acbc fd8c 73bd
00000050: 963c 953d e7f9 c63d 1614 133d a438 8bbd
00000060: 4c67 933d 9bf8 d3bd f439 cd3d e4df 26bd
00000070: 1599 363d 3b6c a3bc 5385 513d ffb2 0d3e
00000080: f336 babc 22bd 22bd a84e 443c ddef 93bc
00000090: 70b4 c7bc 1c37 7b3c 36ea 83bb 6aa3 e63c
000000a0: ba80 653d 487f bb3d 2ad0 573d 3ea9 023e
000000b0: 1bf4 3a3d dea0 d33c 5c65 97bc b8ea a03c
000000c0: 6ae7 84bd 355c f93b 1961 473d 8a3b 57bc
000000d0: 074e a03d b42a de3c 0057 00bd ecf5 5bbc
000000e0: 63b5 ca3c ea6c 313c 6a3c d6bc 4e47 013d
000000f0: 5268 e13d 6e52 f83c 46bc 7f3c 01eb 603d
00000100: e2aa c03d 56aa 163d 4e3c 713d b38a 923d
00000110: c526 cc3c 0ac5 9939 9b32 b73d bdd2 1bbd
00000120: 3476 fcbc 3e11 fc3c 3eab ea3b 2741 7b3b
00000130: f699 14bd 2e13 593b 6336 72bc 8f2d 02bd
00000140: 8c90 483d 5935 3fbb 2930 753d e51b f63c
00000150: 7bd3 7c3c 896e 8cbc b409 b3bd 1cc3 94bd
00000160: 50d5 6b3d 596c 41bd 942e 753c 6105 13bd
00000170: 4f48 e63d b472 5cbb 2afa d6bc 4dda 1c3e
00000180: 5fec 0abc 74f7 3abd 7d7d c5bc 7d3d f63a
00000190: 2e08 6bbd 4ef1 d3bc fe8e 76bd 6fbb f73d
000001a0: a3fa b5bc 5617 833d 83c0 5d3d 89ea f43d
000001b0: e069 cf3c 0641 a33c 13fd 1dbd 5b39 61bc
000001c0: 1753 b8bc eede 933b 1f93 863d 48fc 113d
000001d0: 2f69 2ebc 7d6f 723c c1f1 71bc aef2 d53c
000001e0: f8cd a0bb 6e3d 69bd f525 7dbc 5d8a 3bbd
000001f0: 95dd 373d 5b11 d5bc b50d 1e3d 252e 173c
00000200: 5dff 64bc 7f04 23bd dcfe 8dbc ad25 abbd
00000210: ac0e b1bd 333c 533d b043 e73c 467f ec3b
00000220: 958a e5bd 23eb 1d3d 0762 cfbd 0d0e 23bc
00000230: cdce 773d e6bc 8a3d 1a43 05bd 7ca4 c1bc
00000240: df50 7fbd 0733 0fbc ccce de3b 1d7c 73bd
00000250: a115 23bb 94f5 f43c 7a36 d3bb ac62 a6bb
00000260: bee2 a13d 232d af3d 2d22 ecbc 5727 8dbb
00000270: a721 4dbc 479b 4dbd b702 18bd 64a6 613d
00000280: 453c b33d d36b daba 5953 b23d 9921 56bc
00000290: 373e b23d 7e8a 413d 68ac af3d b90b f63d
000002a0: 681a 933d ae30 26be 01e7 843d 2bbf ad3d
000002b0: b300 b6bb a7be 2ebe cd58 68bd e166 303d
000002c0: c403 b5bc 869f c43c ff87 933d 3a06 b83c
000002d0: 382a 0abc 4345 843c 459d c53c 9ca5 033d
000002e0: 804c cf3d adfc cb3c 31ae be3c 0fd3 a23c
000002f0: f364 efbc 8e65 92bc dcbb 4e3d 84c3 aabd
00000300: 7a5f 2cbd 70c3 33bb eb92 6e3c 67ad 253c
00000310: 6a6e e6bc ae76 81bd 7309 be3d 01db a63d
00000320: 33a7 ab3c bfaa 05bc 2c39 ca3b 6275 cb3c
00000330: 9a96 693d 47bb 60bc 6874 dcbc eff2 56bc
00000340: 8178 7d3d 5f43 c4bd 649f babc cbdb adbd
00000350: a068 22be b362 80bc 789c 22bd 3776 f6bc
00000360: fac4 1ebd a5d2 c0bc a7a6 ca3d 2d9e 16bd
00000370: f8cd fe3c b1cb 7a3d c0ad bfbc 04b3 acbd
00000380: 7869 353d cb75 983d d1d8 723d 930e 4dbc
00000390: 72c9 ddbd b2d7 06be b722 f23c 8738 bcbd
000003a0: 1103 7ebd 6337 4ebb 21b2 d8bc 3598 873d
000003b0: d8b2 8a3e 0295 003e a40b 113c 9b95 ce3d
000003c0: 41ca f1bb 02d7 ea3b 6d49 a23c 5402 e93d
000003d0: bc9a 303c fd0b 5f3c cdce c8bc 209e cf3d
000003e0: e0a7 813c 6d3c 5dbd cabe 943d 3b24 963d
000003f0: 69cd c33b 984f a13b b039 9fbb e069 f1bd
-0.019145083 -0.029600998 0.0743042 0.07099324 -0.058650594 0.0006784648 0.007225071 0.075764276
-0.014248105 0.047715317 0.07996485 -0.018256482 0.02468237 -0.042670313 -0.036706407 -0.027935265
0.017647464 -0.0037531175 -0.021021524 -0.05946063 0.072869465 0.09715634 0.035907827 -0.06797913
0.07197437 -0.10350152 0.10020819 -0.040740862 0.044579584 -0.01994907 0.05115254 0.13837813
-0.02273128 -0.039731152 0.011981644 -0.018058712 -0.024378031 0.015332963 -0.004025723 0.028154094
0.056030966 0.09155136 0.052688755 0.12759873 0.045642953 0.025833543 -0.01848095 0.019643173
-0.06489451 0.007609869 0.048676584 -0.013136754 0.078273825 0.027119972 -0.03133297 -0.013425332
0.024744695 0.01082919 -0.026151855 0.031562142 0.11006226 0.030312743 0.015608853 0.054911617
0.09407593 0.03678354 0.0588954 0.07155361 0.02492083 0.0002932924 0.08945199 -0.038042773
-0.030818082 0.03076994 0.007161527 0.0038338394 -0.03627964 0.0033123004 -0.014783475 -0.03178173
0.048965976 -0.0029176085 0.059860382 0.030042598 0.01543128 -0.017142551 -0.08742085 -0.07263777
0.057576478 -0.04722247 0.014964718 -0.0358938 0.112442605 -0.0033637704 -0.026242334 0.1531765
-0.008479207 -0.045646146 -0.024107689 0.0018786635 -0.057380848 -0.025871899 -0.06019496 0.12096297
-0.02221424 0.06400935 0.05413867 0.119587965 0.02531904 0.019928467 -0.03857143 -0.013746585
-0.022500558 0.0045126593 0.0657103 0.035640985 -0.010645195 0.014797089 -0.014767111 0.026116695
-0.004907366 -0.05694335 -0.015450944 -0.04578625 0.04488905 -0.026009252 0.03858729 0.00922731
-0.013976899 -0.03979921 -0.01733344 -0.083567955 -0.086453766 0.051571082 0.028230518 0.0072173206
-0.11208073 0.038554322 -0.10126119 -0.00995208 0.060499955 0.06774311 -0.032534696 -0.023638003
-0.062332984 -0.008740193 0.0067995545 -0.059444536 -0.0024884718 0.029902257 -0.006445703 -0.0050776806
0.07904576 0.08553531 -0.02882489 -0.004307668 -0.01252023 -0.050196912 -0.037111964 0.055090323
0.0875173 -0.0016664214 0.087073036 -0.013069534 0.08703273 0.047251217 0.08577806 0.12013955
0.07182771 -0.16229507 0.06489373 0.08483728 -0.0055542826 -0.17064916 -0.056725312 0.043066863
-0.022096522 0.024001848 0.072036736 0.022463907 -0.008432917 0.016146308 0.024122844 0.03214036
0.10122013 0.024900759 0.02327642 0.019876031 -0.029222941 -0.01787069 0.050472125 -0.08338073
-0.04208324 -0.0027429722 0.014561395 0.010112143 -0.028128821 -0.063214645 0.09279146 0.081472404
0.02095375 -0.008158385 0.006171366 0.024836246 0.05702839 -0.013716525 -0.026910976 -0.013119443
0.0618825 -0.095831625 -0.022781081 -0.08489188 -0.15860224 -0.015672063 -0.0397 -0.030085666
-0.03876207 -0.023537943 0.09895068 -0.036771942 0.031104073 0.06122941 -0.02339828 -0.08432582
0.044290036 0.07444342 0.059288803 -0.012515682 -0.10829438 -0.13168219 0.029557569 -0.09190469
-0.062014643 -0.0031466119 -0.026452126 0.06620828 0.27089572 0.12556842 0.008852873 0.10087129
-0.007378847 0.007166744 0.019810403 0.11377397 0.010779079 0.013613698 -0.024512673 0.10137582
0.01582712 -0.054012705 0.072629526 0.07331129 0.0059754145 0.0049228184 -0.004859172 -0.11787772

module.aux_layer.0.bias f4 [10]
00000000: 351d 54bc 64cd 97bd ac0e 1dbc c61d 28bc
00000010: e1f5 a73d 4895 bebc edd0 ff3c 4423 2c3b
00000020: d534 e33c 819d 6fbd
-0.012946417 -0.07412222 -0.009586018 -0.010261005 0.082011946 -0.023264542 0.031227553 0.0026266137
0.027735153 -0.058499817
